new_model_checkpoint.pt (torch, 22648 bytes, 4 tensors)

conv1.weight f4 [16, 3, 3, 3]
0	0xbd98155a	-0.074259475
1	0x3d9a9bd7	0.07549255
2	0x3d483cd0	0.04888612
3	0x3e159be8	0.14610255
4	0x3d65330d	0.05595689
5	0x3dd1910c	0.102327436
6	0x3dfe977c	0.12431237
7	0xbdc7d861	-0.09758068
8	0xbd815d35	-0.06316606
9	0x3e0a3c62	0.13499597
10	0x3deea1cb	0.11651953
11	0xbe149a06	-0.1451188
12	0xbdc3e8d5	-0.095658936
13	0xbc4add9f	-0.01238194
14	0x3ccbbb5f	0.024869619
15	0xbe030b45	-0.12797268
16	0xbe0222bf	-0.12708567
17	0x3c48cbce	0.012255622
18	0xbdb5889f	-0.08863949
19	0xbb26610e	-0.002538744
20	0x3c53fd4a	0.012938807
21	0x3daa0a99	0.083028026
22	0xbdd394d0	-0.10331118
23	0xbe2428eb	-0.16031234
24	0x3e423b26	0.18967876
25	0x3e053ea9	0.13012184
26	0x3cd112ae	0.025521602
27	0xbe1e0ed9	-0.15435351
28	0x3e057c4e	0.130357
29	0x3d839b1e	0.06426071
30	0xbe0395c4	-0.128501
31	0xbd8a3dce	-0.067500696
32	0xbe39cccb	-0.18144529
33	0x3d553161	0.052049045
34	0x3db23149	0.08700807
35	0x3e0bcb58	0.13651788
36	0x3d59f328	0.053210407
37	0x3dbb215d	0.09137223
38	0xbded6ea2	-0.11593367
39	0x3e20dbca	0.15708843
40	0x3e09b566	0.13448104
41	0xbe2d85cb	-0.16945569
42	0xbc4d6c87	-0.012538082
43	0x3b943d6d	0.004523924
44	0xbd59117c	-0.05299519
45	0x3da94189	0.08264453
46	0xbdbe7435	-0.092995085
47	0xbd890889	-0.06691081
48	0x3e1ec0d3	0.15503244
49	0x3e037d97	0.12840877
50	0x3dbd02ca	0.092290476
51	0xbc6bdea9	-0.014396348
52	0xbd9ce866	-0.07661514
53	0x3e180956	0.14847311
54	0x3dcdddd5	0.10052077
55	0xbe11abd8	-0.1422571
56	0xbb18d6a5	-0.0023321297
57	0xbcbd92dc	-0.023141317
58	0x3dcc7485	0.09983162
59	0x3d081e25	0.033231873
60	0xbcb43cae	-0.02200159
61	0xbe3e14e7	-0.18562661
62	0x3e1a18ea	0.15048566
63	0x3e1e4654	0.15456516
64	0xbe05f241	-0.13080694
65	0x3df51370	0.11966598
66	0x3e27f463	0.1640182
67	0xbd376c11	-0.044780795
68	0x3de59300	0.11209679
69	0x3e120b29	0.1426207
70	0xba670325	-0.0008812419
71	0x3e4235a6	0.18965778
72	0xbdfa88cf	-0.122331254
73	0xbd28052c	-0.041020557
74	0xbe1e4724	-0.15456825
75	0xbd65f208	-0.056139022
76	0xbe364002	-0.17797855
77	0xbd98c238	-0.07458919
78	0xbd6f093c	-0.058358416
79	0x3de4d05c	0.11172554
80	0x3e2b6c66	0.1674057
81	0x3d428162	0.04748667
82	0x3d0ce57a	0.034398533
83	0x3dd8a625	0.105785646
84	0x3da263e1	0.07929207
85	0x3d7fa379	0.06241176
86	0xbda71a81	-0.08159352
87	0x3cf82e08	0.030295387
88	0x3de3f66c	0.111309856
89	0x3e44fdb0	0.19237399
90	0xbd559477	-0.05214354
91	0x3d106079	0.035248253
92	0xbcd6206d	-0.026138509
93	0xbc1c96f8	-0.009557478
94	0xbdacc95b	-0.08436843
95	0xbd9641c5	-0.07336763
96	0x3df38266	0.11890106
97	0x3d7c6799	0.061622236
98	0xbcf99c5c	-0.030470066
99	0x3dad25ff	0.08454513
100	0xbe1a1369	-0.15046467
101	0xbdf0587f	-0.11735629
102	0xbdafc55b	-0.085825644
103	0x3e0c2831	0.13687207
104	0xbdb7acda	-0.08968516
105	0xbe1e00d0	-0.15429997
106	0x3db13bd4	0.086539894
107	0xbd91a442	-0.07111408
108	0xbd43c3bc	-0.04779409
109	0xbe20a972	-0.15689638
110	0xbdf99998	-0.12187499
111	0xbd911541	-0.07084132
112	0x3e16824a	0.14698139
113	0x3e300e7b	0.17193024
114	0x3e14d328	0.14533675
115	0x3e373340	0.17890644
116	0x3e1eb736	0.15499577
117	0xbca51b61	-0.020154657
118	0xbe21ec45	-0.15812786
119	0xbde4fd61	-0.11181141
120	0x3d63cadb	0.05561338
121	0xbd578276	-0.05261465
122	0x3d2e3759	0.042533252
123	0x3da2c1f9	0.079471536
124	0xbe371656	-0.17879614
125	0x3d64a948	0.0558255
126	0x3d1951b7	0.037431445
127	0x3dd3126e	0.103062496
128	0x3e09dde7	0.13463555
129	0xbda7244f	-0.08161222
130	0x3e336d64	0.17522198
131	0xbd4000c3	-0.046875726
132	0xbdf872c5	-0.121312656
133	0x3d11ae60	0.035566688
134	0x3e42763b	0.18990414
135	0xbe386df0	-0.18010688
136	0x3d9e3413	0.07724776
137	0xbdc298f2	-0.09501828
138	0x3cd5f12e	0.02611598
139	0x3caedab0	0.021344513
140	0x3d8456e7	0.06461888
141	0x3d8c10c9	0.06839139
142	0xbdfaf174	-0.12253085
143	0x3e161668	0.14656985
144	0xbe2c87c4	-0.16848665
145	0x3d8f39f4	0.069934756
146	0x3e19cadb	0.1501879
147	0x3de21e86	0.11040978
148	0xbe0142fa	-0.12623206
149	0xbe16e2d5	-0.14734967
150	0x3d0a0542	0.03369642
151	0xbd799a4a	-0.060938157
152	0x3d3bde75	0.04586645
153	0x3e152aab	0.14567058
154	0x3d56709b	0.052353483
155	0xbe2d73a0	-0.16938639
156	0x3e3f9263	0.18708186
157	0x3c738e2c	0.014865439
158	0xbe32c419	-0.17457618
159	0xbc37d998	-0.011221312
160	0xbdd2edda	-0.10299273
161	0x3e11ec17	0.14250217
162	0x3dba39db	0.09093066
163	0xbd2282da	-0.03967557
164	0xbdc078d1	-0.09398044
165	0x3e11953c	0.14217085
166	0x3de8d815	0.113693394
167	0xbe2d2b29	-0.16910996
168	0xbde0bfbf	-0.10974073
169	0x3c187eca	0.009307573
170	0x3e3b35d1	0.18282248
171	0xbe2e9769	-0.17049946
172	0xbdff2546	-0.12458281
173	0xbe272e47	-0.16326247
174	0xbddfaac0	-0.1092124
175	0x3e38c650	0.180444
176	0xbdba0620	-0.090831995
177	0x3cecd7c9	0.028911488
178	0xbda8f320	-0.082494974
179	0xbc9c154e	-0.019053128
180	0xbc7d1bd4	-0.015448529
181	0xbd749167	-0.05970898
182	0x3e350ed1	0.17681433
183	0x3e1bb0a9	0.15204109
184	0xbdfbc04d	-0.12292538
185	0x3b7f0e15	0.0038918306
186	0x3e2cc2bc	0.1687116
187	0xbe0d7159	-0.1381277
188	0x3c5a0974	0.013307918
189	0x3e33f774	0.17574865
190	0xbe0c2385	-0.13685425
191	0x3dde2694	0.10847202
192	0xbe06fd5b	-0.13182585
193	0x3deaf037	0.114715986
194	0xbd4ed836	-0.050499164
195	0x3d93c93c	0.07216117
196	0x3dd756fb	0.10514637
197	0xbe085b14	-0.13315994
198	0x3e199b16	0.15000567
199	0x3c8c1891	0.017101558
200	0x3dde0f4b	0.10842761
201	0xbc91415a	-0.017731357
202	0x3e379d77	0.17931162
203	0xbd6ce6d2	-0.057837315
204	0x3e30138c	0.17194957
205	0xbdb69ad0	-0.08916247
206	0xbe22b05a	-0.15887585
207	0x3e376e26	0.17913112
208	0xbdf60c38	-0.12014049
209	0x3e24c752	0.1609166
210	0xbdb55169	-0.088534184
211	0x3e0f4bb5	0.13993724
212	0xbe345adc	-0.17612785
213	0xbdb86caa	-0.09005101
214	0x3b3a3df8	0.0028418284
215	0x3d9ccae2	0.07655884
216	0x3dda710a	0.10666092
217	0xbe3f2019	-0.18664588
218	0xbd9ae6e2	-0.07563569
219	0xbdd9d00b	-0.10635384
220	0xbd88c1bd	-0.06677578
221	0x3d3d532f	0.04622191
222	0x3d87e366	0.0663517
223	0xbe3b33e1	-0.18281509
224	0xbe10eb27	-0.14152204
225	0xbe0457f1	-0.12924172
226	0x3d40cb7c	0.047069058
227	0x3d127424	0.03575529
228	0x3cf63517	0.030054612
229	0x3d517f26	0.05114665
230	0xbd12b4a9	-0.035816822
231	0x3e0c106f	0.13678144
232	0xbc438cfc	-0.011935469
233	0x3e064ca9	0.13115181
234	0xbe0f765a	-0.14009991
235	0x3e3f07f5	0.18655379
236	0x3d408865	0.047005076
237	0xbcf33ff1	-0.029693576
238	0x3d2035a4	0.039113656
239	0x3c967f98	0.018371388
240	0x3d6aa85c	0.057289466
241	0x3d0e4463	0.034733187
242	0x3db91d7a	0.09038825
243	0x3da7011a	0.08154507
244	0x3e186a17	0.1488422
245	0x3e052f98	0.13006437
246	0x3de70ec9	0.11282117
247	0x3d5635dc	0.052297458
248	0xbc49ffb9	-0.012329035
249	0x3cd47f00	0.025939465
250	0x3e00c145	0.12573726
251	0x3cbb03c3	0.022828942
252	0xbdd3fcb6	-0.10350935
253	0xbd5f8131	-0.054566566
254	0xbe361e3b	-0.1778497
255	0x3dedc01c	0.116089076

conv1.bias f4 [16]
0	0xbc090142	-0.008362116
1	0x3e12aa7a	0.14322844
2	0x3dcaabc3	0.09896042
3	0x3cd38667	0.025820924
4	0xbc9fcfcf	-0.01950827
5	0x3e02bd90	0.12767625
6	0xbd26568b	-0.040609878
7	0x3b200bdb	0.002442113
8	0xbdba5e32	-0.090999976
9	0xbdfe82db	-0.124273024
10	0xbda788d3	-0.08180394
11	0x3e0579d4	0.13034755
12	0x3cbac3a1	0.022798361
13	0x3ce0fc6a	0.02746411
14	0xbe16e579	-0.14735974
15	0x3e1b70ac	0.151797

conv2.weight f4 [32, 16, 3, 3]
0	0x3cc383d6	0.023866575
1	0x3bb715c0	0.0055873096
2	0x3d865a54	0.065601975
3	0xbcba8ddb	-0.02277272
4	0x3d9ab51a	0.07554074
5	0xbd29ff36	-0.041503154
6	0xbd8bd08f	-0.06826889
7	0x3c2f1ee0	0.0106885135
8	0xbbf8b7eb	-0.007590284
9	0x3d96e6b7	0.07368224
10	0xbd9af71c	-0.075666636
11	0xbc85b690	-0.016322404
12	0x3cd2b356	0.02572028
13	0x3d8f4ceb	0.06997093
14	0xbda9e778	-0.08296102
15	0xbd2cad80	-0.04215765
16	0x3d9616f7	0.07328599
17	0xbb8c0c40	-0.0042739213
18	0x3bcc98d6	0.0062438054
19	0xbc0bd9c0	-0.008535802
20	0xbd875854	-0.06608644
21	0xbd3f92a0	-0.046770692
22	0x3cf991db	0.030465057
23	0xbd5590d8	-0.052140087
24	0x3d21412e	0.0393688
25	0x3d92ed3e	0.071741566
26	0x3d98df83	0.074645065
27	0x3d26b7de	0.040702693
28	0xbb3f73ab	-0.002921323
29	0x3af64056	0.0018787484
30	0xbd262e28	-0.04057136
31	0xbc2c2196	-0.010506054
32	0x3cf5846b	0.029970368
33	0x3cc305a0	0.023806393
34	0x3d37ab46	0.044841073
35	0xbd40f5a3	-0.047109257
36	0xbd5c336b	-0.053759973
37	0xbd2c47fb	-0.042060833
38	0x3cb0fb86	0.02160431
39	0x3c1ab1e0	0.009441823
40	0x3d2313e3	0.039813887
41	0x3c88582b	0.016643604
42	0x3c290a20	0.010317355
43	0xbb1b92ab	-0.0023738544
44	0x3d52c0c0	0.051453352
45	0xbca73dfb	-0.020415297
46	0xbc340236	-0.010986855
47	0x3d964902	0.07338144
48	0x3bb94800	0.005654335
49	0x3cfc9e20	0.030837119
50	0xbd15a926	-0.036538266
51	0xbdaa2bcb	-0.08309134
52	0xbc645d8b	-0.013938318
53	0xbc806fb0	-0.015678257
54	0x3cffa49b	0.03120642
55	0x3cf9eb66	0.030507755
56	0x3c9aac96	0.018881124
57	0xbd5f995b	-0.05458961
58	0x3d5da69e	0.054113977
59	0xbd619118	-0.055070013
60	0x3d9fb95c	0.07799026
61	0xbd1d7d93	-0.038449835
62	0x3c2c74a0	0.010525852
63	0xbd3a7010	-0.045517027
64	0x3cf5a7eb	0.029987296
65	0x3ce6470b	0.028110048
66	0xbcca2606	-0.024676334
67	0xbd1c1bd8	-0.03811249
68	0xbca70b00	-0.020390987
69	0x3cb05450	0.021524578
70	0xbd62550b	-0.055256885
71	0x3d02f6d3	0.03197367
72	0xbd7144e0	-0.058903575
73	0x3da2e88a	0.079545096
74	0xbda04f16	-0.078275844
75	0x3d26b686	0.04070141
76	0x3d75a1ee	0.05996888
77	0xbd275823	-0.040855538
78	0x3d18b7b3	0.037284564
79	0xbd1111ce	-0.03541737
80	0xbce05eb6	-0.027388912
81	0xbcbc8990	-0.023014814
82	0x3c9b465b	0.018954447
83	0xbd744e6b	-0.059645098
84	0xbb675a80	-0.0035301745
85	0xbac61756	-0.0015113156
86	0x3da965fc	0.08271405
87	0xbd25d9fe	-0.040491097
88	0x3c8fd20b	0.017556211
89	0xbd8379a8	-0.064196885
90	0xbc0809eb	-0.008303146
91	0xbd34155e	-0.04396569
92	0x3cc086eb	0.023501834
93	0xbd558f20	-0.052138448
94	0x3daa97b8	0.08329719
95	0xbc5018a0	-0.012701184
96	0x3d5c6280	0.053804874
97	0x3da8db83	0.082449935
98	0x3ccb4030	0.02481088
99	0x3da338ee	0.07969843
100	0x3d60ff66	0.054931067
101	0xbd77bf9b	-0.060485464
102	0x3d2aada6	0.04166951
103	0x3d78c7db	0.060737472
104	0x3ce24ad6	0.027623575
105	0x3d3ae72e	0.045630626
106	0xbd8dd243	-0.0692487
107	0xbcf52816	-0.029926341
108	0x3d1867d0	0.03720838
109	0x3d96fec0	0.073728085
110	0x3d935dce	0.07195626
111	0xbcb99ff0	-0.022659272
112	0xbd32139e	-0.04347574
113	0xbbfa71d6	-0.007642965
114	0xbda05482	-0.078286186
115	0x3cbc9380	0.023019552
116	0x3d43ea00	0.04783058
117	0xbd852f93	-0.06503215
118	0xbd700f48	-0.058608323
119	0xbd40410e	-0.04693704
120	0xbcbf249b	-0.023332885
121	0xbd7ee556	-0.06223043
122	0xbd8b5d03	-0.0680485
123	0xbd36e960	-0.044656157
124	0xbc76688b	-0.015039573
125	0x3ac79aab	0.001522859
126	0x3c07a14b	0.008278201
127	0x3bd64c56	0.0065398617
128	0xbc87e2c6	-0.016587626
129	0xbc7aa5cb	-0.015298317
130	0xbd40bd0e	-0.047055297
131	0x3d568b53	0.052378964
132	0xbd7cd18e	-0.061723284
133	0x3d1dc94b	0.038522046
134	0x3c8e1cfb	0.017347803
135	0x3cedc760	0.029025733
136	0x3da13d7c	0.07873055
137	0x3d70acd0	0.058758557
138	0x3d9f3cfb	0.07775303
139	0x3d6257e3	0.055259597
140	0x3d842863	0.06453016
141	0xbd8d4393	-0.068976544
142	0xbd9796cf	-0.07401811
143	0xbbbc3deb	-0.005744686
144	0xbc879366	-0.016549777
145	0x3d6bbefe	0.05755519
146	0xbd3c5bd6	-0.04598602
147	0xbd49ff46	-0.049315713
148	0x3c8f4ca6	0.017492604
149	0xbcf21470	-0.029550761
150	0x3c93dd40	0.018049836
151	0x3d14be8b	0.03631453
152	0xbbb36aab	-0.0054753623
153	0x3bfc2b40	0.0076955855
154	0x3c43dfe0	0.011955231
155	0xbc40eeb6	-0.011775663
156	0x3ca56c9b	0.020193389
157	0x3d615358	0.055011123
158	0xbd5a553b	-0.05330394
159	0x3d2ad16b	0.041703623
160	0xbd6d7ac3	-0.057978403
161	0xbd19c42e	-0.037540607
162	0x3d3f4a2e	0.046701603
163	0x3d70caee	0.05878728
164	0x3d941200	0.07229996
165	0xbc5134a0	-0.012768894
166	0xbd01ada3	-0.031659734
167	0x3c06c856	0.008226475
168	0xbd05ac66	-0.032635115
169	0xbd949884	-0.072556525
170	0x3c466f8b	0.012111555
171	0x3d3fbf73	0.04681344
172	0x3d7e3e7b	0.062071305
173	0xbcc3de10	-0.023909599
174	0xbcc402c0	-0.023927093
175	0xbd26c576	-0.040715657
176	0x3d8633a0	0.065528154
177	0xbc0e50f6	-0.008686295
178	0xbda815fb	-0.082073174
179	0xbda9a976	-0.08284275
180	0x3d2266d3	0.039648842
181	0x3d95d5d0	0.07316172
182	0x3c5f86f6	0.013643017
183	0x3cc7ec8b	0.024404785
184	0xbb4dd9d6	-0.0031410358
185	0x3d8fb5b6	0.070170805
186	0x3ca849d6	0.02054302
187	0xbd01faa8	-0.031733185
188	0xbc93f45b	-0.018060854
189	0x3d9f3137	0.07773059
190	0x3d701b90	0.058620036
191	0xbbbe6e96	-0.0058115227
192	0x3a7a20ab	0.0009541611
193	0xbb6ed780	-0.0036444366
194	0x3d836a1f	0.06416725
195	0xbc251300	-0.010075331
196	0x3d9c3416	0.07627122
197	0xbd8dbfeb	-0.06921371
198	0x3d3c38c0	0.04595256
199	0x3d2cb6c6	0.042166494
200	0x3d5d4486	0.054020427
201	0x3d91339c	0.07089922
202	0xbd88ab4e	-0.06673299
203	0x3d508b0b	0.05091385
204	0xbd40a2f8	-0.04703042
205	0x3d5784eb	0.052616995
206	0xbd4dd388	-0.05025056
207	0xbd3b6f4e	-0.045760445
208	0x3d5d890e	0.054085784
209	0x3c325e96	0.010886809
210	0x3da23edf	0.07922148
211	0xbd9787bb	-0.073989354
212	0xbca07a76	-0.019589644
213	0xbd6f9896	-0.058495127
214	0x3d3f4383	0.046695244
215	0xbbe17116	-0.006879936
216	0xbd01c456	-0.03168138
217	0x3d8477bb	0.06468149
218	0xbd480b98	-0.04883918
219	0x3ccf2aab	0.0252889
220	0x3a9fc6ab	0.0012189945
221	0xbd0b87ab	-0.03406493
222	0xbd563940	-0.05230069
223	0xbd1b9ca6	-0.03799119
224	0xbb864916	-0.004098068
225	0x3d8502b0	0.06494653
226	0x3da4b9c3	0.08043244
227	0xbda70dce	-0.0815693
228	0xbd86514c	-0.06558475
229	0x39d08aab	0.00039776167
230	0x3d47e7eb	0.04880516
231	0x3d5feb18	0.054667562
232	0xbc9b5286	-0.018960249
233	0x3d5761a8	0.052583367
234	0xbd48d280	-0.049028873
235	0xbd0fd048	-0.03511074
236	0xbd0dde9b	-0.03463612
237	0xbd660e70	-0.056166112
238	0xbd2c6c2b	-0.042095345
239	0x3d81e3f4	0.06342307
240	0x3c5c1b20	0.0134342015
241	0x3c52c46b	0.0128642125
242	0xbd30d1d3	-0.043168854
243	0xbcd5d6fb	-0.026103487
244	0x3d989303	0.07449915
245	0x3d84ce10	0.06484616
246	0x3ceb15ab	0.028696856
247	0xbd82eeb7	-0.063931875
248	0x3c3d91f6	0.011570444
249	0x3d9fd784	0.07804778
250	0x3d757fa3	0.059936177
251	0x3d968934	0.07350388
252	0xbc61316b	-0.013744692
253	0xbd342400	-0.043979645
254	0xbb1df856	-0.0024104319
255	0x3d548bde	0.0518912

conv2.bias f4 [32]
0	0x3d92015b	0.07129165
1	0x3d32ef5b	0.0436853
2	0xbce33fb0	-0.02774033
3	0x3c17e20b	0.009270201
4	0x3b47d02b	0.0030489068
5	0x3ce82890	0.028339654
6	0x3c1cfaab	0.009581248
7	0x3d772a28	0.060342938
8	0xbd086d86	-0.033307575
9	0xbce42db6	-0.027853828
10	0xbc9928db	-0.01869624
11	0x3d7b7cd3	0.06139834
12	0x3d04aa80	0.032389164
13	0xbd459e16	-0.048246466
14	0x3d3efbce	0.04662686
15	0xbd511a36	-0.051050387
16	0x3d829d57	0.063776664
17	0xbcd0e7a6	-0.025501084
18	0x3c14a160	0.009071678
19	0x3cafd676	0.021464568
20	0xbd787e13	-0.06066711
21	0xbda4715b	-0.08029433
22	0x3c84c186	0.01620556
23	0xbd309e68	-0.043119818
24	0x3c340a6b	0.010988812
25	0xbd944518	-0.07239741
26	0x3d95537b	0.07291313
27	0x3d9d522f	0.07681691
28	0x3ca3f4b0	0.020014137
29	0x3d3bdb1e	0.045863263
30	0xbd302c16	-0.043010794
31	0xbd44683b	-0.047950964
